Basics/mnist-multilayer.pth (torch, 103960 bytes, 4 tensors)

linear1.weight f4 [32, 784]
00000000: 00c2 0fbc f54e 8ebc 12d5 9a3c 8436 8f3c
00000010: 66c6 d53c 1c7d 173c 3840 c0bb ac7f cdbc
00000020: 4a89 e3bc bc44 52bc a883 5e3c 23c1 083d
00000030: 2992 a63b f98e d03c d61a 34bb 8184 e2bc
00000040: e003 8c3c d4ce 1b3c 9076 ca3c 6c40 a73c
00000050: 42f2 e03c 4042 5b3a 8c24 9d3c 851b f9bc
00000060: 8483 143c daf1 8cbc 34ae 0abd c8fc ba3b
00000070: 7f98 083d 4b13 093d 25b0 82bc 98f7 b73b
00000080: 4ab5 94bc 8ffb ae3c d58e 8e3c f722 c03c
00000090: 28c5 753c cc64 c7bc c375 10bd d5fd 0f3d
000000a0: a023 3e3c 1dbe adbc 96b5 033d f4b6 13bd
000000b0: d677 4239 c3d5 acbc 10d5 ccbc bec9 52bc
000000c0: 6499 4a3c 23d0 973c 8f8a 32ba 0bc9 d63b
000000d0: 8a80 d83c 10b3 663b c608 a83c 3eee a0bc
000000e0: 8c81 ffbc 28a9 fabc 10a8 973b bb19 033d
000000f0: 6f84 2cbb 587f 163c a761 3a3c d701 303c
00000100: ee33 063c 3a7a 083d 7d61 10bd bf69 77bc
00000110: 2f2f 053b ba15 243c b5d2 673c be4d bdbc
00000120: e135 62bc 3b42 7dbc fea7 063c b2e8 d03c
00000130: 8e58 be3c b1ed 053d b297 00bd 2a4c c13c
00000140: c2c2 50bc b825 043d 20e2 feba 78c6 213c
00000150: 8c04 9b3c 7cea 96bc 7689 82bc 4394 cdba
00000160: 4747 113d 1cc9 7a3c c0d0 fd3c 2200 7b3b
00000170: f500 533b cc5b 2a3c 5db9 0bbd e7f4 7b3c
00000180: 9f33 503c 8f50 36bb ac7d debc f1b6 69bc
00000190: 3fa8 20b9 39a0 2bbc 9f44 273c 43f5 48bc
000001a0: ec99 b03c 4ae2 b8bc e41a 29bc fec6 01bb
000001b0: 5c3e d23c c063 70bc 3b78 40bc 5c76 0f3c
000001c0: e8af c5bc 432d 03bd 5b69 d3bc bbc9 c73b
000001d0: a30c eabc 951d cabc 5618 7d3c b474 fdbc
000001e0: 7cf0 c93b 8764 b63c 48d5 f2bc 6e26 f13c
000001f0: 50a0 c93c 8a5c 563c 157c 2dbb eca6 363c
00000200: 8216 ff3c f8cc 033d 6dff 0e3d 5c7b 583c
00000210: 0651 ec3b 6984 a7bb 79b7 da3c aed7 96bc
00000220: fedb 143c 5f81 a53c 3eef ecbb e360 e73b
00000230: f854 91bb 70d6 e23b 3bb4 5b3c 3f49 87bc
00000240: 8c29 d13c 3719 7fbc 995f 373d 52a7 0a3d
00000250: c2ad 5cbc 2ff0 4cba 1980 bc3c d756 fa3a
00000260: e8e5 88bb dc6a c93b 82fe b23c f415 1f3d
00000270: 8911 be3d 2d8a b53c 331b 253d ff47 673d
00000280: 906b 743d e6da f03c 3cb1 d63c 280f 1f3d
00000290: 6540 bf3c 8ecd a23a 77b7 563c 7bda e53c
000002a0: 5c8c 7c3c a001 08bd 36d8 533b 488d 253c
000002b0: d866 993c f084 c8bc 8cee bdbc e8a1 d5bc
000002c0: ecd2 14bd 9f43 cb3b a595 9abc 8d76 063d
000002d0: 83c8 d03c 19b5 a23d 8d8c 463d 5207 ac3d
000002e0: bc01 823d 1c29 7d3d 41ad ba3d 83d5 a43c
000002f0: 9bab 803d f3c0 c43c 04c7 a93b 1186 6f3d
00000300: 226d 253d 309b 1d3c 0141 fd3b 1228 883b
00000310: daa5 a238 b29b b8bb a484 053d 96df 13bd
00000320: f2ef 253c 5d34 813b b4c0 00bc 6868 e4bc
00000330: 90fe 2f3c bd10 41bd 6faf 58bd c7a3 5d3b
00000340: f1a9 d33a ed56 283c 6042 1b3d 5ea6 3dbb
00000350: 1f54 423c 3cde f63b 62f1 373b 0d83 083c
00000360: d8fc 8d3c a52b 963c a97a 3d3d 2b67 873d
00000370: 03e6 2f3d d3e2 b3b7 e8ac 153d 4b8d ac3c
00000380: 4ee7 0ebc 4508 5bbc d2a6 663b 0e1b 1f3c
00000390: d190 de3c 1ddd dabc 81a8 5abd 1172 60bd
000003a0: 53af 623a 7da1 74bc cd25 5cbc f57c 9fbd
000003b0: 45f7 2abd 78b5 09bd cb73 ba3b 365e b7bb
000003c0: 6150 f4b9 2938 5e3c 5077 1bbc 3060 513c
000003d0: a08b 223d 8cc6 253d 135e d33c ba26 443d
000003e0: 08a3 cd3d b5c4 233d 3e5e babc 552a f839
000003f0: 5869 eb3c 6bd2 243c 7483 b63c 94c2 02bd
-0.008774281 -0.017371634 0.018900428 0.01748205 0.02609558 0.009246137 -0.0058670305 -0.025085293
-0.027775425 -0.01283377 0.013581194 0.033387315 0.0050833416 0.0254588 -0.0027481816 -0.027651073
0.017091691 0.009509761 0.024714738 0.02041646 0.027459268 0.0008364059 0.019182466 -0.03040863
0.009064559 -0.017205168 -0.03385754 0.0057064034 0.033348557 0.033465665 -0.015953133 0.0056142323
-0.018152852 0.021360187 0.017402092 0.023454173 0.015000619 -0.024340056 -0.035268556 0.035154182
0.011605173 -0.021208817 0.032155596 -0.03606315 0.00018545924 -0.021098023 -0.02500394 -0.012865482
0.012365673 0.018531865 -0.0006810808 0.006554728 0.02642848 0.0035201944 0.020511996 -0.019644853
-0.031189702 -0.030598238 0.004628189 0.03200696 -0.0026324054 0.009185635 0.011375821 0.010742626
0.008191092 0.03331969 -0.035249222 -0.015100895 0.0020322313 0.010014946 0.014149358 -0.02310836
-0.013806791 -0.015457685 0.008218763 0.025501583 0.023235586 0.032697383 -0.031394668 0.023595888
-0.012741746 0.032262534 -0.0019446053 0.009873979 0.018923067 -0.018422358 -0.015934687 -0.0015684444
0.035468366 0.015306737 0.030983329 0.003829964 0.0032196615 0.010397863 -0.034112323 0.0153782135
0.01270762 -0.0027819013 -0.027159534 -0.014264808 -0.00015321466 -0.010475212 0.010209232 -0.012265506
0.02155777 -0.02256884 -0.010321353 -0.0019802446 0.0256645 -0.01467222 -0.011747415 0.008756246
-0.02413173 -0.032025587 -0.025807073 0.006097046 -0.028570479 -0.024672309 0.015447697 -0.030939437
0.006162701 0.022264732 -0.029642716 0.02943727 0.024612576 0.0130835865 -0.0026471664 0.011148196
0.031138662 0.032177895 0.03491156 0.013213005 0.007211807 -0.00511222 0.026698815 -0.018413391
0.009085653 0.02020329 -0.0072306683 0.0070611103 -0.004435178 0.0069225356 0.0134096695 -0.016514419
0.025532506 -0.0155699765 0.044768903 0.033850975 -0.0134691615 -0.00078177726 0.0230103 0.0019099367
-0.0041777976 0.006146772 0.021849874 0.038839296 0.09280688 0.022160614 0.040309142 0.056465145
0.059672892 0.029401254 0.026207559 0.038832814 0.023346135 0.0012420879 0.013105265 0.028058281
0.015414324 -0.033204675 0.0032324917 0.010104485 0.018725798 -0.024477452 -0.023185037 -0.02607818
-0.036333963 0.0062031294 -0.018870184 0.032827903 0.025486236 0.07944698 0.048473883 0.08399834
0.06347987 0.061806783 0.09115077 0.020121342 0.06282731 0.024017787 0.005181195 0.058477465
0.04038728 0.009619519 0.0077286963 0.0041551674 7.755654e-05 -0.0056337947 0.0325972 -0.0361019
0.010128008 0.00394301 -0.007858444 -0.027881816 0.010741845 -0.047135103 -0.05290168 0.0033819543
0.0016148669 0.010274631 0.037905097 -0.0028938274 0.011860876 0.0075338166 0.002806746 0.008332026
0.01733248 0.018331358 0.046259556 0.066114746 0.042943966 -2.1444086e-05 0.03654185 0.021063467
-0.0087221395 -0.013368671 0.0035194647 0.00971104 0.027168663 -0.026716763 -0.053383354 -0.054796282
0.0008647341 -0.01493108 -0.013436747 -0.077875055 -0.04173972 -0.033620328 0.005690073 -0.0055959476
-0.00046599194 0.013563194 -0.009488896 0.012779281 0.039683938 0.040472552 0.025801694 0.047888495
0.10040861 0.039982516 -0.022750016 0.00047333786 0.028736755 0.010059933 0.022279479 -0.031923845

linear1.bias f4 [32]
00000000: 8243 383c d2aa e03d 29b0 a1bd 1dfd c0bd
00000010: df73 ffba 915f 1d3e 29b3 f03d b24b 923b
00000020: 1a96 ee3d 70cd 933d 29a8 f3bc b0fa af3c
00000030: 1e88 19bd 1804 22be 9d6a bc3d 453f a83d
00000040: aaf4 3c3d 6a91 23bd 9fe4 063e ee14 d63d
00000050: 65be 3c3e 6d0c 173d d327 883b 62d9 313d
00000060: 74a5 2a3e 15d3 98bb e307 8d3e ae5f 013e
00000070: 0d98 a7bb 2839 e03b b769 593d e42a 26bc
0.011246564 0.109700814 -0.07894928 -0.094232775 -0.0019489488 0.15368487 0.11752922 0.00446459
0.11649723 0.072169185 -0.029743271 0.021481842 -0.037483327 -0.15821874 0.09200022 0.08215193
0.046131767 -0.0399336 0.1317315 0.10453211 0.18432005 0.036877085 0.004155138 0.043420203
0.16664678 -0.004663835 0.2754508 0.12634155 -0.0051145614 0.006842751 0.053079333 -0.010142062

linear2.weight f4 [10, 32]
00000000: f208 153d 1c2d 23bf 6715 823e ca7f 263f
00000010: 06f1 6dbd ceaf 7a3d 595d b83e 7dc6 073f
00000020: 0942 eeba b4d7 bc3e 4a5a 823c 6e47 843d
00000030: 68f2 473c c60a a0be b446 0dbf 50b2 b4be
00000040: 15f3 563d 0dfe 123d 1af6 a8be b13e b53d
00000050: b457 01bf c760 0ebe a1d0 6ebe 3372 afbc
00000060: ed6e 7c3e b3a4 0bbe 5361 b3be 2fce 16be
00000070: ede1 dabd 1d70 b7bd ceb6 1a3f b177 e53d
00000080: 1dcd 8f3d 2005 d73e 8b05 823e 2743 c1be
00000090: 8e17 7cbe 46ba 803e bdde 04bf bbe9 ddbe
000000a0: f1b8 263e fc20 37be 29fd 203e 6d56 5f3e
000000b0: 24c4 dcbe 62d1 bebd 5824 a03d b618 27be
000000c0: 52cd 463d f8ac 893d 869f 103f 5829 a7be
000000d0: 27f6 193f 6a9b 2d3e 9587 01bf 2bcd 97be
000000e0: 0928 97bd 0672 abbe 6680 d3be d125 ae3e
000000f0: 2fed 84be e952 1a3e 7f7c c8bd a0e6 d13e
00000100: ac50 a8be 92dd 343f 9ec3 a4be 11aa 9f3e
00000110: cce4 333f fc30 993e a8ec a23d bcf1 fd3c
00000120: 7708 553e 1aa5 2bbd 3bdb 263d 2417 94be
00000130: df25 a33d 1b7c 5c3d 18dd 34be 8d55 9fbd
00000140: 0917 b8bd aaa3 143c 60cd 91be d392 6a3e
00000150: 143a c5be 9969 20be 7ae1 bc3e aa14 32be
00000160: 7a7e 81be 7305 f9bd 0b31 d1be a1f2 733e
00000170: d21b edbe b335 ef3d 50a7 0fbe c996 b03e
00000180: ebb1 1b3f ecd2 1c3d 27c9 36be f905 04bf
00000190: efde 6b3e 1833 9c3e e564 003f 37bb 733e
000001a0: c411 7b3d 7972 453e 83fa 0abd 2522 dd3e
000001b0: 23ff 763e 28de c73e 4f9c d93d 9c9b aa3e
000001c0: 0c8f b53d 7d5c 083d 5f80 b4bd 8ae4 b6be
000001d0: e27d b4be f719 513c 1696 5abe 446c e13c
000001e0: 64f8 eb3d 39a0 1e3e c57e 03bf 2900 b03e
000001f0: 4103 ffbe 2060 fcbc df7b ebbd a03e 4cbe
00000200: 3828 583e 8e13 b53d 90d3 02bd 4f1b bbbe
00000210: 3cda 52be 9bda 013e 1b13 bfbe 975a cfbe
00000220: 617b 77be 11b8 ddbe a5e6 1cbc 937c bdbd
00000230: 0226 e53d 4e28 f3bd bbb3 0abf 42ba 743e
00000240: 6f35 64be 7ee3 a8be de06 273a 3e49 e03e
00000250: 80be d6bd 936c a2be b751 61bd b600 ab3e
00000260: 8386 b3be 1d7c 063f 8a35 423f 726c 07be
00000270: cb6e 073f 93bc c33d fb6b 903c 02f2 a2be
00000280: ecc7 e23e ddac c7be 59e2 abbe 8394 3f3e
00000290: 976d b1be f783 82bc ce46 803e 4065 9abe
000002a0: 98e1 cf3e 852d 1e3f 50d5 193e f613 babe
000002b0: 5c1b 873d 8e0d 07bf 9060 9c3e 3fca d73e
000002c0: 097a 623e dc93 9cbe 08fa afbe a6ce f83d
000002d0: 3256 933e ce50 8cbe 4d4d 08be 3537 4bbe
000002e0: 8c1e f63e 4a25 c4bc 9787 15bd f07b d13d
000002f0: 0be2 a03e 6ac5 193e 67b4 24be 3409 8e3d
00000300: 6be0 5bbd ba53 0a3f 599a c83e 40b7 313e
00000310: e9aa 0a3f efa4 aebe 2601 a1be 15b2 afbe
00000320: 7431 cbbe 5d54 a23c 8f6a 893b 8b1b 13be
00000330: b0f2 483d a862 d7be 0294 21bf 5530 543e
00000340: 44c8 29bd 5225 88be d654 9bbe 9e92 06be
00000350: 201f 023f 651e 903e 28e6 1bbd 8bff a33e
00000360: bfd8 1e3e eacc 0bbf 7415 03bd 6782 a0bd
00000370: c175 113e aa74 37bd f81d 003f cf46 92be
00000380: c66a 3cbf 5b7c bcbe 8736 b23d 793f 0ebf
00000390: 3f54 8e3d a5b0 ff3c 6483 b73e dc23 d63e
000003a0: ed18 a6bc 48fa 69be 5478 d23d 36d2 023e
000003b0: a48b a1be f977 5fbe 82ba 0f3f 8561 03bd
000003c0: 5934 243e e274 1c3e ee64 e13e 1f0e 79be
000003d0: e29b 0cbf 045f 183e e721 f33d 38b6 8f3e
000003e0: 637f 903e 9349 71bd 6f15 2f3f 7807 453e
000003f0: ae4e c9be 91d6 953b 2026 89be aa9a 6fbd
0.036385484 -0.63740706 0.25406954 0.6503874 -0.058091186 0.061202817 0.3600872 0.53037244
-0.0018177639 0.36883318 0.015912194 0.06458937 0.01220379 -0.3125822 -0.5518601 -0.35292292
0.052477915 0.035886813 -0.3300026 0.08849848 -0.5052445 -0.13904105 -0.23321773 -0.02141676
0.2465169 -0.13637047 -0.3503519 -0.1472709 -0.10687623 -0.08956931 0.6043519 0.1120447
0.07021544 0.41996098 0.25394854 -0.37746546 -0.2461836 0.25142115 -0.5190237 -0.43342385
0.16281487 -0.17883676 0.15721573 0.21810313 -0.43118393 -0.0931728 0.07819432 -0.1631802
0.048535652 0.06722444 0.56493413 -0.3264873 0.60141224 0.16953817 -0.50597507 -0.29648718
-0.07380683 -0.3348543 -0.41308898 0.34013227 -0.25962207 0.1507069 -0.09789371 0.40996265
-0.32874048 0.7065059 -0.32180494 0.31184438 0.7027099 0.29920185 0.07955295 0.030999057
0.2080401 -0.0419055 0.04073642 -0.28923905 0.07966208 0.053829294 -0.17662466 -0.077799894
-0.089887686 0.009072224 -0.28477 0.22907571 -0.38520873 -0.15665282 0.36890775 -0.17390695
-0.25291806 -0.121592425 -0.4085773 0.23823024 -0.46310288 0.11680164 -0.14028668 0.3449004
0.60818356 0.03828709 -0.17850171 -0.51571614 0.23034261 0.3050773 0.5015395 0.23801886
0.06129624 0.19281949 -0.033930313 0.43190113 0.24120764 0.3903668 0.106255166 0.33321846
0.08865175 0.03329133 -0.08813547 -0.35721236 -0.3525229 0.012762538 -0.21346316 0.027517445
0.11521986 0.15490808 -0.5136531 0.34375122 -0.4980717 -0.030807555 -0.11498236 -0.19945765
0.21109092 0.088416204 -0.031940043 -0.36544272 -0.20591062 0.12681048 -0.37319264 -0.40498802
-0.24168159 -0.43304494 -0.009576474 -0.09252276 0.1118889 -0.11872922 -0.54180497 0.23899177
-0.22286008 -0.32986063 0.0006371568 0.4380588 -0.10485554 -0.3172346 -0.05500957 0.3339898
-0.35063562 0.5253313 0.75862944 -0.13224962 0.5290343 0.09557452 0.017629614 -0.31825262
0.44293153 -0.38999072 -0.33571127 0.18708996 -0.34653923 -0.015932066 0.2505402 -0.30155373
0.40601802 0.6178821 0.15022779 -0.36343354 0.06597015 -0.5275506 0.3054242 0.4214649
0.22116865 -0.30581558 -0.34370446 0.1214879 0.287767 -0.274054 -0.13310738 -0.19845279
0.4807018 -0.023943562 -0.03650626 0.10228717 0.31422457 0.15016714 -0.16084443 0.06935349
-0.05368082 0.54034007 0.39180258 0.1735506 0.5416704 -0.3411021 -0.3144619 -0.34315553
-0.39686167 0.019815618 0.004193611 -0.14365976 0.04905957 -0.42067456 -0.63116467 0.20721562
-0.041450754 -0.26590973 -0.30338162 -0.13141868 0.50828743 0.2814819 -0.03806129 0.320309
0.1551237 -0.5460955 -0.03200288 -0.07837372 0.14205076 -0.044788994 0.5004573 -0.28569648
-0.73600423 -0.36813626 0.087018065 -0.555656 0.069496624 0.03121216 0.3584243 0.41824234
-0.020275557 -0.22849381 0.10276857 0.12775502 -0.3155185 -0.2182311 0.56143963 -0.032075424
0.16035594 0.15278962 0.44022316 -0.24321793 -0.5492536 0.14879996 0.11871701 0.2806871
0.28222188 -0.058908056 0.6839208 0.1924113 -0.3931784 0.0045726974 -0.267869 -0.05849711

linear2.bias f4 [10]
00000000: 0dcc 08bb 6318 693d d1d3 1dbe fdf5 04be
00000010: 1438 c7bd b1b1 173e a59d f83c b2c5 453e
00000020: db54 7dbe a2c6 9bbc
-0.0020873577 0.056908023 -0.15412833 -0.12984462 -0.09727493 0.14813878 0.030348608 0.19313696
-0.24739401 -0.019015614
