Basics/mnist-logistics.pth (torch, 32968 bytes, 2 tensors)

linear.weight f4 [10, 784]
0	0xbb64c0a0	-0.0034904853
1	0x3ca56c02	0.020193104
2	0x3d0d970d	0.03456788
3	0x3c2e1f18	0.0106275305
4	0xba999640	-0.0011717752
5	0x3ca71cea	0.02039953
6	0x3ce0608e	0.02738979
7	0xbbf26e1c	-0.00739838
8	0xbc712300	-0.014717817
9	0xbc523c6a	-0.012831787
10	0xbcb5c4ea	-0.022188623
11	0x3cba0d10	0.022711307
12	0x3cc559df	0.024090705
13	0x3c22788f	0.009916439
14	0xbc1e298a	-0.009653458
15	0xbbb48b01	-0.0055097346
16	0x3d0efa47	0.03490665
17	0xbcdda5e0	-0.027056634
18	0xbcc123fc	-0.023576729
19	0x3b85a148	0.004078064
20	0x3d01ee97	0.031721678
21	0x3cb97ffa	0.022644032
22	0x3b2c7f60	0.0026321039
23	0xbd080468	-0.033207327
24	0x3af0a9a0	0.0018361099
25	0x3cf3870e	0.029727485
26	0x3c8da2b8	0.017289504
27	0x3ce9496e	0.028477397
28	0xbd02b017	-0.031906214
29	0x3cd44b8e	0.025914934
30	0x3d048241	0.032350782
31	0xbc02dd58	-0.007987343
32	0xbcbc34d8	-0.022974417
33	0xbb684f5b	-0.003544769
34	0x3c9970e5	0.01873059
35	0x3a8020a6	0.0009775355
36	0xbc2a5622	-0.010396512
37	0xbc47c944	-0.012193982
38	0x3ca71798	0.020396993
39	0xbc99d655	-0.01877896
40	0xbcc2182a	-0.023693163
41	0xbc80d23e	-0.015725251
42	0x3c2e3a0d	0.010633958
43	0xbcf6f583	-0.030146366
44	0xbd0a22fe	-0.033724777
45	0xba5bf798	-0.00083910814
46	0x3c3d386b	0.011549096
47	0xbc9f4aad	-0.019444788
48	0x3d0ffb8e	0.03515201
49	0xbcf21451	-0.029550703
50	0x3bba105d	0.00567822
51	0x3c8ba8ce	0.017048266
52	0x3ce6170e	0.028087165
53	0x3a9b7e60	0.0011863224
54	0xbcaf183e	-0.021373864
55	0xbcf3c075	-0.029754857
56	0xbc080ed2	-0.008304315
57	0xbc8ddc7a	-0.017317045
58	0xbc92d5d1	-0.017924221
59	0xbb27bca2	-0.0025594612
60	0x3d10551c	0.035237417
61	0x3c205c40	0.009787619
62	0x3c9a3c36	0.018827539
63	0x3bfb824e	0.0076754456
64	0xb93e411b	-0.00018144066
65	0x3ce9e3b0	0.028550953
66	0xbaf58b2b	-0.0018733492
67	0x3caebe65	0.021331022
68	0xbc472675	-0.012155165
69	0x3bee1bf4	0.007266516
70	0xbc8cd3d7	-0.017190857
71	0xbd1805f3	-0.03711505
72	0xbc9986bf	-0.01874101
73	0x3bfc979f	0.0077085043
74	0x3c2c1dcb	0.01050515
75	0xbcd73f77	-0.02627538
76	0x3cd296c7	0.025706662
77	0xbbe0193b	-0.006838945
78	0xbc2554cb	-0.010091017
79	0xbca78584	-0.020449407
80	0x3a92b097	0.0011191544
81	0x3d0ac0c5	0.033875246
82	0x3d08b377	0.033374276
83	0x3ce2a4f2	0.027666543
84	0xbc2716d8	-0.0101983175
85	0x3caeee38	0.021353826
86	0x3cf10a9f	0.02942401
87	0xbc969075	-0.01837943
88	0x3bb8a056	0.005634348
89	0x3c1e2aa3	0.00965372
90	0x3cd046b4	0.025424339
91	0xbc671ae3	-0.014105531
92	0xbcb22ccf	-0.021749882
93	0x3c628826	0.013826406
94	0xbc7e0a92	-0.01550545
95	0xbc9e3b83	-0.019315487
96	0xbc3730eb	-0.011181097
97	0xbc6ac32a	-0.014328757
98	0x3c9a6b04	0.018849857
99	0xbc68561a	-0.014180684
100	0x3c34da44	0.011038367
101	0x3c8f2297	0.017472548
102	0xbcc96a0b	-0.024586698
103	0xbc8bca11	-0.017064126
104	0x3ca2b1f0	0.019860238
105	0xbc862979	-0.016377198
106	0xbb379322	-0.0028011282
107	0xbcc66694	-0.024218835
108	0x3cef4c3b	0.029211154
109	0xbce3a42b	-0.027788242
110	0x3ce4a1a6	0.027909111
111	0xbc15ff8a	-0.009155164
112	0xbcf0b4ca	-0.029383082
113	0xbbf2b7de	-0.0074071726
114	0x3c68ea77	0.014216057
115	0x3d0f7a92	0.035029
116	0xbbf6c190	-0.0075303987
117	0x3c99924a	0.018746514
118	0xbd0e3252	-0.034715958
119	0xbb690f41	-0.003556207
120	0xbd10f831	-0.035392944
121	0xbcb8cc66	-0.022558402
122	0xbc269aa0	-0.010168701
123	0xbb66dee8	-0.0035228077
124	0xbc2be27a	-0.010491008
125	0xbbd09840	-0.006365806
126	0xbcf49879	-0.02985786
127	0xbc7c341a	-0.015393281
128	0x3bd19b8e	0.0063967174
129	0xbc8b8a62	-0.01703376
130	0x3d03a1f6	0.03213688
131	0x3cd8370a	0.026393432
132	0xbc401e40	-0.011725962
133	0xbccb6628	-0.024828985
134	0xbbb1b678	-0.0054233633
135	0x3c41316b	0.011791567
136	0x3c968188	0.018372312
137	0xbcef403c	-0.029205434
138	0xbd0592e3	-0.032610785
139	0x3d047007	0.0323334
140	0x3c8395d0	0.016062647
141	0x3c132548	0.0089810565
142	0x3c9c1bfe	0.019056316
143	0x3b70ccbe	0.003674313
144	0xbc804a96	-0.015660565
145	0xbd08a161	-0.033357028
146	0x3c2907f2	0.010316836
147	0x3ce19214	0.027535476
148	0xbb8739be	-0.0041267565
149	0xbce9c49c	-0.028536133
150	0xbbb1ea46	-0.005429539
151	0x3bcf8017	0.006332408
152	0xbc13c9b2	-0.009020256
153	0x3c3cb6bc	0.011518177
154	0xbc4a201d	-0.012336758
155	0x3bf1ba62	0.007376955
156	0x3cb0ff52	0.021606121
157	0x3c5344b9	0.012894803
158	0x3c53280c	0.012887966
159	0xbb41724e	-0.0029517594
160	0xba281a9a	-0.00064126553
161	0x3d1456c4	0.03621556
162	0xbcc3094f	-0.02380815
163	0xbce89597	-0.028391642
164	0x3cb1ae12	0.021689449
165	0x3d00c9a5	0.031442303
166	0x3c161225	0.009159599
167	0x3c8a8271	0.016907902
168	0xbcad7e05	-0.021178255
169	0xbd0633b7	-0.032764163
170	0x3c76ccfb	0.01506352
171	0x3c2db698	0.010602616
172	0x3923c880	0.00015619583
173	0xbd1504c7	-0.03638151
174	0x3c871666	0.016490173
175	0x3c16488c	0.00917257
176	0x3cbe4d4e	0.023230221
177	0x3c16c409	0.009202012
178	0x3cbaa80a	0.022785205
179	0x3b6edba2	0.003644683
180	0xbafea1bc	-0.0019426863
181	0x3be7a0a6	0.0070687113
182	0xbbf0ceb1	-0.0073488583
183	0x3d229636	0.039694034
184	0xbc259149	-0.010105439
185	0xbbeb6040	-0.0071831048
186	0x3d6f97b7	0.058494296
187	0x3c39017b	0.011291857
188	0x3ca07240	0.019585729
189	0xbceeac5d	-0.029134924
190	0x3cd85f0c	0.02641251
191	0xbd1232f7	-0.035693135
192	0xbd088557	-0.033330288
193	0xbcb67faa	-0.022277672
194	0x3d0a2b9e	0.033733003
195	0xbc83a31a	-0.016068984
196	0x3ce5f075	0.02806876
197	0x3d03bcd0	0.032162488
198	0xbca7daff	-0.020490168
199	0xbc76de3c	-0.015067633
200	0xbd121d7b	-0.035672646
201	0xbd163e5d	-0.036680568
202	0xbc2c61eb	-0.010521392
203	0xbafec7fd	-0.0019438263
204	0xbd251ab8	-0.040308684
205	0xbd0eb87d	-0.03484391
206	0xbd13d1a6	-0.03608861
207	0x3aeabd89	0.0017909269
208	0x3d0fad1d	0.035077203
209	0x3d069e10	0.032865584
210	0xbbb786f7	-0.005600806
211	0xba34fde8	-0.000690429
212	0xbcab5901	-0.020916464
213	0x3d29df95	0.04147299
214	0xbb70a103	-0.0036717064
215	0x3d4e9ec5	0.050444383
216	0xbc540f65	-0.0129431235
217	0x3cc3fc84	0.02392412
218	0x3c894854	0.016758122
219	0xbcc8d36b	-0.024514874
220	0x3c4b4b20	0.012408048
221	0xbc090b77	-0.00836455
222	0x3cd8b52b	0.026453575
223	0xbc2bc84c	-0.010484766
224	0x3d0ecbb8	0.03486225
225	0x3c8de911	0.017323049
226	0xbc8d429b	-0.017243674
227	0x3c26340d	0.010144246
228	0x3cda1db3	0.02662549
229	0x3c7b4441	0.015336097
230	0x3c1870ab	0.009304206
231	0xbd114679	-0.0354676
232	0xbc161632	-0.009160565
233	0xb8ecbaa0	-0.000112881185
234	0xbc8528d3	-0.016254818
235	0xbc4898db	-0.012243475
236	0x3c7b92f0	0.015354857
237	0x3d25656f	0.040379938
238	0x3d02e8eb	0.03196041
239	0x3cd6b29d	0.026208216
240	0x3ce63cb9	0.028105127
241	0x3d0678bd	0.03282999
242	0x3d05bb2b	0.0326492
243	0x3ca99a80	0.020703554
244	0x3bd52206	0.0065043
245	0xbb01a347	-0.0019781159
246	0x3d07983d	0.03310417
247	0x3d1e2260	0.038607
248	0xbc143a4f	-0.009047105
249	0xbbd60d22	-0.0065323273
250	0x3c4b3f43	0.0124052195
251	0xbc351ef8	-0.011054747
252	0x3cb36b7f	0.021901844
253	0xbc8f625b	-0.017502954
254	0x3cfba6a7	0.030719114
255	0xbb63be2a	-0.0034750798

linear.bias f4 [10]
0	0xbccc6bf2	-0.024953816
1	0x3ce058ba	0.027386058
2	0x3c4882e1	0.012238235
3	0xbc74fc8c	-0.01495279
4	0xbb9d86d6	-0.0048073335
5	0xbcc331ce	-0.02382746
6	0xbcd55dd4	-0.026045717
7	0xba0f9093	-0.00054765603
8	0xbc109d20	-0.008826524
9	0xbc926f79	-0.01787542
