Basics/mnist-logistics.pth (torch, 32968 bytes, 2 tensors)

linear.weight f4 [10, 784]
0	0x3c849678	0.01618503
1	0x3af3b600	0.0018593669
2	0x3bea3b50	0.007148184
3	0xbc9233bc	-0.017846934
4	0x3c1cd8a4	0.0095731355
5	0xbc518252	-0.012787418
6	0xbcc89ddc	-0.024489336
7	0x3ced130e	0.02893975
8	0x3ca8a418	0.020586058
9	0x3c87d594	0.016581334
10	0x3c3f6c44	0.011683527
11	0x3c419d7c	0.011817332
12	0x3bf61eeb	0.00751101
13	0xbc09606c	-0.008384805
14	0x3c28635f	0.010277598
15	0xbc08ea13	-0.008356589
16	0xbd07f082	-0.03318835
17	0xbc468d00	-0.012118578
18	0x3cf6fee2	0.030150834
19	0x3c1c1ffc	0.00952911
20	0xbc71f326	-0.014767444
21	0x3c3f16f4	0.011663187
22	0xbcf78368	-0.030214027
23	0xbcadebbe	-0.021230575
24	0xbcf59543	-0.0299784
25	0xbc7c3514	-0.015393514
26	0xbcaeab9a	-0.02132206
27	0x3c7f77dc	0.015592542
28	0xbcf430e1	-0.029808464
29	0xbb4e30d0	-0.00314622
30	0x3cc2abfe	0.023763653
31	0xb9dd4500	-0.00042203814
32	0xb7b53916	-2.1603464e-05
33	0xbbfc2ea0	-0.007695988
34	0x3ca95cc9	0.020674126
35	0x3d0561f4	0.03256412
36	0xbc1bc3c1	-0.009507121
37	0xbd103679	-0.0352082
38	0x3b1d8800	0.002403736
39	0xbcfcdc12	-0.030866656
40	0xb9dbed27	-0.00041947627
41	0xbd0bce8b	-0.03413252
42	0xbc940c8b	-0.018072387
43	0x3d026d9e	0.03184282
44	0x3cad85cf	0.021181969
45	0x3d0a1751	0.033713643
46	0xbcf72d3f	-0.030172942
47	0xbb29611d	-0.0025845238
48	0xbca9a46d	-0.020708287
49	0xbd0da258	-0.03457865
50	0xbcea7440	-0.028619885
51	0x3c0e3de9	0.008681753
52	0xbc2998fc	-0.010351416
53	0x3a0a1280	0.0005267039
54	0xbd08c568	-0.033391386
55	0x3c564890	0.013078824
56	0x3c703798	0.014661692
57	0x3c73c314	0.014878053
58	0x3c9ec502	0.01938105
59	0x3c8c9ded	0.017165149
60	0x3c846b19	0.01616435
61	0xbc765870	-0.015035734
62	0x3bd3415d	0.006447001
63	0xbc15fa14	-0.009153862
64	0x3b66b74a	0.0035204464
65	0x3c3dc72a	0.011583129
66	0x3bc8dfc4	0.0061301906
67	0x3c955a68	0.018231586
68	0xbc1a7926	-0.009428298
69	0xbcf99f25	-0.030471394
70	0xbc416e84	-0.011806134
71	0x3b258e4c	0.0025261817
72	0xbca134b5	-0.019678453
73	0xbd21418e	-0.03936916
74	0xbc92cba3	-0.017919367
75	0xbba3dcd8	-0.005000692
76	0x3c55755f	0.013028472
77	0xbc8d024b	-0.017213007
78	0x3ce7dd53	0.028303778
79	0xbcd2ce0a	-0.025733013
80	0x3c9140b0	0.01773104
81	0xbce9f8f1	-0.028561087
82	0x3bac4400	0.0052571297
83	0xbc3e747c	-0.011624452
84	0x3cd1ccd6	0.025610369
85	0x3ccdba58	0.02511327
86	0x3c908284	0.01764036
87	0xbd121cf0	-0.03567213
88	0xbd09165b	-0.033468585
89	0xbc813f97	-0.015777392
90	0xbc1b8aa8	-0.009493507
91	0xbcda4d1b	-0.026648095
92	0x393239c4	0.00016996922
93	0xbcbcb8ce	-0.02303734
94	0xbbc807af	-0.0061044316
95	0x3cb8c7c2	0.02255619
96	0xbc67b48e	-0.014142169
97	0xbba9e8a9	-0.005185206
98	0xbd1fdf36	-0.03903123
99	0xbc5ceb52	-0.013483839
100	0xbcf68154	-0.030090965
101	0xbbb1336f	-0.0054077427
102	0xbd1beb96	-0.03806647
103	0xbd2ed114	-0.04267986
104	0xbbc03136	-0.0058652414
105	0xbc74fbfe	-0.014952658
106	0xbd0c5312	-0.03425891
107	0xba1a24f4	-0.000588014
108	0x3cdf5a95	0.027264873
109	0x3d00c649	0.0314391
110	0xbcb01a45	-0.021496901
111	0xbcaf087a	-0.021366347
112	0x3c1263d0	0.00893493
113	0xbcce0456	-0.025148552
114	0x3cd4df25	0.02598531
115	0xbc8571ac	-0.016289555
116	0x3c4b59c7	0.012411541
117	0x3c717505	0.014737372
118	0xbcb5dd07	-0.02220012
119	0x3c97dcc5	0.018537888
120	0x3c9fd4c0	0.019510627
121	0xbcb4b1ff	-0.022057531
122	0x3b9e5b5c	0.004832668
123	0xbd328806	-0.043586753
124	0xbc290383	-0.010315779
125	0xbd17416b	-0.03692762
126	0x3b046c23	0.0020206056
127	0x3ce2abb8	0.027669773
128	0x3cbed30f	0.023294
129	0x3ca22247	0.019791735
130	0xbbb20cf3	-0.0054336726
131	0x3c978416	0.0184956
132	0x3ccd0db9	0.025030958
133	0xbd32ff93	-0.043700766
134	0x3c50fe95	0.01275601
135	0xbcc065c3	-0.023486024
136	0xbc890a57	-0.016728563
137	0x3d0d190f	0.034447726
138	0xbcf0aa7e	-0.029378172
139	0xbcafd665	-0.021464536
140	0xbc927ce0	-0.01788181
141	0xbd08e46d	-0.03342097
142	0x3cba9064	0.022773929
143	0xbcdb2528	-0.026751116
144	0x3ce1d0be	0.027565356
145	0xbd1d84ee	-0.03845685
146	0x3ba50591	0.005036064
147	0xbd057e31	-0.03259105
148	0xbcaff972	-0.02148125
149	0x3ac82e28	0.0015272545
150	0xbc6cf017	-0.014461539
151	0xbd2afd63	-0.041745555
152	0xbc09273b	-0.00837117
153	0x3c9f93e6	0.019479703
154	0x3cc2d554	0.023783363
155	0x3d3a9703	0.045554172
156	0x3db5cc56	0.088768646
157	0x3d89297f	0.06697368
158	0x3ca813d2	0.020517264
159	0x3cba1a50	0.022717625
160	0xbcd6d78b	-0.026225826
161	0xbc4fad21	-0.0126755545
162	0xbc9ef8ff	-0.01940584
163	0xbb2a2eae	-0.0025967765
164	0xbce26745	-0.027637133
165	0xbc977bd0	-0.018491656
166	0xbd079133	-0.033097457
167	0x3d01e0e1	0.0317086
168	0xbce48fc0	-0.027900577
169	0xbca0cbea	-0.019628484
170	0xbc253567	-0.010083533
171	0x3c353be8	0.011061646
172	0xbce7e248	-0.028306141
173	0x3b20503f	0.0024461893
174	0x3c441187	0.0119670695
175	0xbc9f7743	-0.019466048
176	0xbbb8b7dd	-0.0056371526
177	0xbc7f56c0	-0.015584648
178	0xbd43cc6c	-0.047802374
179	0x3c62ba76	0.013838401
180	0x3bd7577b	0.006571708
181	0x3d1cc8ef	0.038277563
182	0x3d97dba9	0.07414944
183	0x3d879097	0.06619375
184	0x3db3c0f6	0.08777039
185	0x3dc0ad7f	0.09408092
186	0x3d704c72	0.058666654
187	0x3da1ad06	0.0789433
188	0xbb116572	-0.002218571
189	0x3c7b5264	0.015339468
190	0xbc0f9569	-0.0087636495
191	0x391dc530	0.00015046145
192	0xbca075ee	-0.019587483
193	0x3c9a366c	0.018824778
194	0x3cf4e5c8	0.029894724
195	0xbcc8642d	-0.02446183
196	0xbc96f307	-0.018426431
197	0xbcd27a12	-0.025692973
198	0xbc4cab20	-0.012491971
199	0xbc2c7a23	-0.010527167
200	0x3b53db96	0.0032326928
201	0xbcd0c8fa	-0.025486458
202	0xbb2ae142	-0.0026074206
203	0xbd43553e	-0.047688715
204	0xbcc24fa9	-0.023719626
205	0xbcc1d9cd	-0.023663426
206	0x3bc60a07	0.006043676
207	0x3c4dd797	0.012563608
208	0xbbe3817f	-0.0069429274
209	0x3d374d6c	0.04475157
210	0x3d3afd69	0.045651827
211	0x3d3d113b	0.04615901
212	0x3da99c34	0.082817465
213	0x3d804188	0.06262499
214	0x3d7c57a2	0.06160701
215	0x3d4a8e6d	0.049452234
216	0x3d908181	0.07055951
217	0x3d12e6d0	0.03586465
218	0x3c4e7d5b	0.012603129
219	0xbd1d4b34	-0.038401797
220	0xbc75dc1b	-0.0150060905
221	0xbd2205d3	-0.039556336
222	0xbc950076	-0.018188696
223	0x3d07d289	0.033159766
224	0xbc307ceb	-0.01077197
225	0xbbf23b4b	-0.007392322
226	0x3ca5b614	0.020228423
227	0xbb4ad4f0	-0.0030949675
228	0x3cc35093	0.023842132
229	0x3c68b6e2	0.014203759
230	0xbd55f599	-0.052236173
231	0x3bf8908d	0.007585591
232	0xbd130ad3	-0.035898995
233	0xbc9578e7	-0.018246127
234	0xbd113364	-0.0354494
235	0xbbf8c959	-0.007592362
236	0x3d56204f	0.052276906
237	0x3ba7f84f	0.0051260362
238	0x3d866bdf	0.065635435
239	0x3d6da69b	0.058020215
240	0x3da66d29	0.081262894
241	0x3d54aa52	0.051920243
242	0x3dc6a3c0	0.096992016
243	0x3db742f7	0.089483194
244	0x3d9ded46	0.07711272
245	0x3d552c5d	0.05204426
246	0xbb0c6401	-0.0021421912
247	0x3cffd924	0.03123147
248	0xbd43e76e	-0.04782813
249	0xbc992739	-0.01869546
250	0x3a816d3b	0.0009874472
251	0xbc10d129	-0.00883893
252	0x3b4c0eb4	0.0031136693
253	0x3b21775c	0.0024637794
254	0x39ebbe70	0.0004496458
255	0xbd11dd4e	-0.035611443

linear.bias f4 [10]
0	0xbd8d68c0	-0.06904745
1	0x3e227c6b	0.15867774
2	0xbd15b921	-0.036553506
3	0xbd30da6e	-0.04317706
4	0x3cf36094	0.029709138
5	0x3ddd13fc	0.10794827
6	0x3c8741d3	0.01651088
7	0x3d893638	0.066997945
8	0xbe4a0d5f	-0.19731663
9	0xbd028be6	-0.0318717
